day_25_27_09_25/weights_only.npz (npz, 1058 bytes, 3 tensors)

arr_0 f4 [2, 4]
0	0x3b0acd94	0.0021179663
1	0xbf796d2c	-0.9743221
2	0x3f324d06	0.6964878
3	0x3f64322d	0.8913906
4	0x3fb492eb	1.4107336
5	0xbcd02880	-0.025409937
6	0x3f323c37	0.6962313
7	0xbf6428cc	-0.8912475

arr_1 f4 [4]
0	0x38cc9d0b	9.7567296e-05
1	0x00000000	0.0
2	0xbf322969	-0.69594437
3	0x37ef7638	2.854607e-05

arr_2 f4 [4, 1]
0	0x3f6a2d3d	0.9147528
1	0x3e7042e8	0.23463023
2	0xc00202b5	-2.0314152
3	0x3fdde410	1.7335224
